…
/home/wutr/IsaacGym/isaacgym/python/isaacgym/_bindings/src/gymtorch
Using /home/wutr/.cache/torch_extensions/py38_cu121 as PyTorch extensions root...
Emitting ninja build file /home/wutr/.cache/torch_extensions/py38_cu121/gymtorch/build.ninja...
Building extension module gymtorch...
Allowing ninja to set a default number of workers... (overridable by setting the environment variable MAX_JOBS=N)
ninja: no work to do.
Loading extension module gymtorch...
Setting seed: 1
Not connected to PVD
+++ Using GPU PhysX
Physics Engine: PhysX
Physics Device: cuda:1
GPU Pipeline: enabled
Actor MLP: Sequential(
  (0): Linear(in_features=45, out_features=512, bias=True)
  (1): ELU(alpha=1.0)
  (2): Linear(in_features=512, out_features=256, bias=True)
  (3): ELU(alpha=1.0)
  (4): Linear(in_features=256, out_features=128, bias=True)
  (5): ELU(alpha=1.0)
  (6): Linear(in_features=128, out_features=12, bias=True)
)
Critic MLP: Sequential(
  (0): Linear(in_features=45, out_features=512, bias=True)
  (1): ELU(alpha=1.0)
  (2): Linear(in_features=512, out_features=256, bias=True)
  (3): ELU(alpha=1.0)
  (4): Linear(in_features=256, out_features=128, bias=True)
  (5): ELU(alpha=1.0)
  (6): Linear(in_features=128, out_features=1, bias=True)
)
Loading low-level policy checkpoint: /home/wutr/IsaacGym/legged_gym_go2/logs/rough_go2/Sep08_11-57-26_/model_18500.pt
Actor MLP: Sequential(
  (0): Linear(in_features=24, out_features=512, bias=True)
  (1): ELU(alpha=1.0)
  (2): Linear(in_features=512, out_features=512, bias=True)
  (3): ELU(alpha=1.0)
  (4): Linear(in_features=512, out_features=512, bias=True)
  (5): ELU(alpha=1.0)
  (6): Linear(in_features=512, out_features=512, bias=True)
  (7): ELU(alpha=1.0)
  (8): Linear(in_features=512, out_features=3, bias=True)
)
Critic MLP: Sequential(
  (0): Linear(in_features=24, out_features=512, bias=True)
  (1): ELU(alpha=1.0)
  (2): Linear(in_features=512, out_features=512, bias=True)
  (3): ELU(alpha=1.0)
  (4): Linear(in_features=512, out_features=512, bias=True)
  (5): ELU(alpha=1.0)
  (6): Linear(in_features=512, out_features=512, bias=True)
  (7): ELU(alpha=1.0)
  (8): Linear(in_features=512, out_features=1, bias=True)
)
Reach-Avoid training
  envs       : 4096
  obs dim    : 24
  action dim : 3
  horizon    : 200
  device     : cuda:1
  log dir    : logs/high_level_go2/20251125-074525
iter 00001 | success 0.016 | policy_loss 0.01460 | value_loss 9177.16162 | Vmean -0.017 | Rmean 61.530 | Vrmse 135.566 | VexpVar -0.000 | adv_std 120.790 | elapsed 29.79s
iter 00002 | success 0.012 | policy_loss 0.00061 | value_loss 8573.69421 | Vmean 0.468 | Rmean 58.519 | Vrmse 131.025 | VexpVar 0.001 | adv_std 117.463 | elapsed 29.02s
…
