…
/home/wutr/IsaacGym/isaacgym/python/isaacgym/_bindings/src/gymtorch
Using /home/wutr/.cache/torch_extensions/py38_cu121 as PyTorch extensions root...
Emitting ninja build file /home/wutr/.cache/torch_extensions/py38_cu121/gymtorch/build.ninja...
Building extension module gymtorch...
Allowing ninja to set a default number of workers... (overridable by setting the environment variable MAX_JOBS=N)
ninja: no work to do.
Loading extension module gymtorch...
Setting seed: 1
Not connected to PVD
+++ Using GPU PhysX
Physics Engine: PhysX
Physics Device: cuda:1
GPU Pipeline: enabled
Actor MLP: Sequential(
  (0): Linear(in_features=45, out_features=512, bias=True)
  (1): ELU(alpha=1.0)
  (2): Linear(in_features=512, out_features=256, bias=True)
  (3): ELU(alpha=1.0)
  (4): Linear(in_features=256, out_features=128, bias=True)
  (5): ELU(alpha=1.0)
  (6): Linear(in_features=128, out_features=12, bias=True)
)
Critic MLP: Sequential(
  (0): Linear(in_features=45, out_features=512, bias=True)
  (1): ELU(alpha=1.0)
  (2): Linear(in_features=512, out_features=256, bias=True)
  (3): ELU(alpha=1.0)
  (4): Linear(in_features=256, out_features=128, bias=True)
  (5): ELU(alpha=1.0)
  (6): Linear(in_features=128, out_features=1, bias=True)
)
Loading low-level policy checkpoint: /home/wutr/IsaacGym/legged_gym_go2/logs/rough_go2/Sep08_11-57-26_/model_18500.pt
Actor MLP: Sequential(
  (0): Linear(in_features=40, out_features=512, bias=True)
  (1): ELU(alpha=1.0)
  (2): Linear(in_features=512, out_features=512, bias=True)
  (3): ELU(alpha=1.0)
  (4): Linear(in_features=512, out_features=512, bias=True)
  (5): ELU(alpha=1.0)
  (6): Linear(in_features=512, out_features=512, bias=True)
  (7): ELU(alpha=1.0)
  (8): Linear(in_features=512, out_features=3, bias=True)
)
Critic MLP: Sequential(
  (0): Linear(in_features=40, out_features=512, bias=True)
  (1): ELU(alpha=1.0)
  (2): Linear(in_features=512, out_features=512, bias=True)
  (3): ELU(alpha=1.0)
  (4): Linear(in_features=512, out_features=512, bias=True)
  (5): ELU(alpha=1.0)
  (6): Linear(in_features=512, out_features=512, bias=True)
  (7): ELU(alpha=1.0)
  (8): Linear(in_features=512, out_features=1, bias=True)
)
Reach-Avoid training
  envs       : 4096
  obs dim    : 40
  action dim : 3
  horizon    : 200
  device     : cuda:1
  log dir    : logs/high_level_go2/20251125-141002
iter 00001 | success 0.015 | policy_loss 0.00251 | value_loss 9151.14087 | Vmean -0.046 | Rmean 61.429 | Vrmse 135.368 | VexpVar -0.000 | adv_std 120.604 | elapsed 33.29s
iter 00002 | success 0.016 | policy_loss -0.00022 | value_loss 8828.57343 | Vmean 0.276 | Rmean 59.448 | Vrmse 132.954 | VexpVar 0.000 | adv_std 119.061 | elapsed 32.92s
…
